…
stepsize: 20000
snapshot: 0
snapshot_prefix: "vgg16_ctpn"
average_loss: 100
iter_size: 2
I1015 23:54:15.350724  7483 solver.cpp:81] Creating training net from train_net file: models/text_voc/VGG16/ctpn/train.prototxt
I1015 23:54:15.351187  7483 net.cpp:58] Initializing net from parameters: 
name: "VGG_ILSVRC_16_layers"
state {
  phase: TRAIN
}
layer {
  name: "input-data"
  type: "Python"
  top: "data"
  top: "im_info"
  top: "gt_boxes"
  python_param {
    module: "roi_data_layer.layer"
    layer: "RoIDataLayer"
    param_str: "\'num_classes\': 2"
  }
}
layer {
  name: "conv1_1"
  type: "Convolution"
  bottom: "data"
  top: "conv1_1"
  param {
    lr_mult: 0
    decay_mult: 0
  }
  param {
    lr_mult: 0
    decay_mult: 0
  }
  convolution_param {
    num_output: 64
    pad: 1
    kernel_size: 3
  }
}
layer {
  name: "relu1_1"
  type: "ReLU"
  bottom: "conv1_1"
  top: "conv1_1"
}
layer {
  name: "conv1_2"
  type: "Convolution"
  bottom: "conv1_1"
  top: "conv1_2"
  param {
    lr_mult: 0
    decay_mult: 0
  }
  param {
    lr_mult: 0
    decay_mult: 0
  }
  convolution_param {
    num_output: 64
    pad: 1
    kernel_size: 3
  }
}
layer {
  name: "relu1_2"
  type: "ReLU"
  bottom: "conv1_2"
  top: "conv1_2"
}
layer {
  name: "pool1"
  type: "Pooling"
  bottom: "conv1_2"
  top: "pool1"
  pooling_param {
    pool: MAX
    kernel_size: 2
    stride: 2
  }
}
layer {
  name: "conv2_1"
  type: "Convolution"
  bottom: "pool1"
  top: "conv2_1"
  param {
    lr_mult: 0
    decay_mult: 0
  }
  param {
    lr_mult: 0
    decay_mult: 0
  }
  convolution_param {
    num_output: 128
    pad: 1
    kernel_size: 3
  }
}
layer {
  name: "relu2_1"
  type: "ReLU"
  bottom: "conv2_1"
  top: "conv2_1"
}
layer {
  name: "conv2_2"
  type: "Convolution"
  bottom: "conv2_1"
  top: "conv2_2"
  param {
    lr_mult: 0
    decay_mult: 0
  }
  param {
    lr_mult: 0
    decay_mult: 0
  }
  convolution_param {
    num_output: 128
    pad: 1
    kernel_size: 3
  }
}
layer {
  name: "relu2_2"
  type: "ReLU"
  bottom: "conv2_2"
  top: "conv2_2"
}
layer {
  name: "pool2"
  type: "Pooling"
  bottom: "conv2_2"
  top: "pool2"
  pooling_param {
    pool: MAX
    kernel_size: 2
    stride: 2
  }
}
layer {
  name: "conv3_1"
  type: "Convolution"
  bottom: "pool2"
  top: "conv3_1"
  param {
    lr_mult: 1
  }
  param {
    lr_mult: 2
  }
  convolution_param {
    num_output: 256
    pad: 1
    kernel_size: 3
  }
}
layer {
  name: "relu3_1"
  type: "ReLU"
  bottom: "conv3_1"
  top: "conv3_1"
}
layer {
  name: "conv3_2"
  type: "Convolution"
  bottom: "conv3_1"
  top: "conv3_2"
  param {
    lr_mult: 1
  }
  param {
    lr_mult: 2
  }
  convolution_param {
    num_output: 256
    pad: 1
    kernel_size: 3
  }
}
layer {
  name: "relu3_2"
  type: "ReLU"
  bottom: "conv3_2"
  top: "conv3_2"
}
layer {
  name: "conv3_3"
  type: "Convolution"
  bottom: "conv3_2"
  top: "conv3_3"
  param {
    lr_mult: 1
  }
  param {
    lr_mult: 2
  }
  convolution_param {
    num_output: 256
    pad: 1
    kernel_size: 3
  }
}
layer {
  name: "relu3_3"
  type: "ReLU"
  bottom: "conv3_3"
  top: "conv3_3"
}
layer {
  name: "pool3"
  type: "Pooling"
  bottom: "conv3_3"
  top: "pool3"
  pooling_param {
    pool: MAX
    kernel_size: 2
    stride: 2
  }
}
layer {
  name: "conv4_1"
  type: "Convolution"
  bottom: "pool3"
  top: "conv4_1"
  param {
    lr_mult: 1
  }
  param {
    lr_mult: 2
  }
  convolution_param {
    num_output: 512
    pad: 1
    kernel_size: 3
  }
}
layer {
  name: "relu4_1"
  type: "ReLU"
  bottom: "conv4_1"
  top: "conv4_1"
}
layer {
  name: "conv4_2"
  type: "Convolution"
  bottom: "conv4_1"
  top: "conv4_2"
  param {
    lr_mult: 1
  }
  param {
    lr_mult: 2
  }
  convolution_param {
    num_output: 512
    pad: 1
    kernel_size: 3
  }
}
layer {
  name: "relu4_2"
  type: "ReLU"
  bottom: "conv4_2"
  top: "conv4_2"
}
layer {
  name: "conv4_3"
  type: "Convolution"
  bottom: "conv4_2"
  top: "conv4_3"
  param {
    lr_mult: 1
  }
  param {
    lr_mult: 2
  }
  convolution_param {
    num_output: 512
    pad: 1
    kernel_size: 3
  }
}
layer {
  name: "relu4_3"
  type: "ReLU"
  bottom: "conv4_3"
  top: "conv4_3"
}
layer {
  name: "pool4"
  type: "Pooling"
  bottom: "conv4_3"
  top: "pool4"
  pooling_param {
    pool: MAX
    kernel_size: 2
    stride: 2
  }
}
layer {
  name: "conv5_1"
  type: "Convolution"
  bottom: "pool4"
  top: "conv5_1"
  param {
    lr_mult: 1
  }
  param {
    lr_mult: 2
  }
  convolution_param {
    num_output: 512
    pad: 1
    kernel_size: 3
  }
}
layer {
  name: "relu5_1"
  type: "ReLU"
  bottom: "conv5_1"
  top: "conv5_1"
}
layer {
  name: "conv5_2"
  type: "Convolution"
  bottom: "conv5_1"
  top: "conv5_2"
  param {
    lr_mult: 1
  }
  param {
    lr_mult: 2
  }
  convolution_param {
    num_output: 512
    pad: 1
    kernel_size: 3
  }
}
layer {
  name: "relu5_2"
  type: "ReLU"
  bottom: "conv5_2"
  top: "conv5_2"
}
layer {
  name: "conv5_3"
  type: "Convolution"
  bottom: "conv5_2"
  top: "conv5_3"
  param {
    lr_mult: 1
  }
  param {
    lr_mult: 2
  }
  convolution_param {
    num_output: 512
    pad: 1
    kernel_size: 3
  }
}
layer {
  name: "relu5_3"
  type: "ReLU"
  bottom: "conv5_3"
  top: "conv5_3"
}
layer {
  name: "im2col"
  type: "Im2col"
  bottom: "conv5_3"
  top: "im2col"
  convolution_param {
    pad: 1
    kernel_size: 3
  }
}
layer {
  name: "im2col_transpose"
  type: "Transpose"
  bottom: "im2col"
  top: "im2col_transpose"
  transpose_param {
    dim: 3
    dim: 2
    dim: 0
    dim: 1
  }
}
layer {
  name: "lstm_input"
  type: "Reshape"
  bottom: "im2col_transpose"
  top: "lstm_input"
  reshape_param {
    shape {
      dim: -1
    }
    axis: 1
    num_axes: 2
  }
}
layer {
  name: "lstm"
  type: "Lstm"
  bottom: "lstm_input"
  top: "lstm"
  lstm_param {
    num_output: 128
    clipping_threshold: 1
    weight_filler {
      type: "gaussian"
      std: 0.01
    }
    bias_filler {
      type: "constant"
    }
  }
}
layer {
  name: "lstm-reverse1"
  type: "Reverse"
  bottom: "lstm_input"
  top: "rlstm_input"
  reverse_param {
    axis: 0
  }
}
layer {
  name: "rlstm"
  type: "Lstm"
  bottom: "rlstm_input"
  top: "rlstm-output"
  lstm_param {
    num_output: 128
    clipping_threshold: 1
    weight_filler {
      type: "gaussian"
      std: 0.01
    }
    bias_filler {
      type: "constant"
    }
  }
}
layer {
  name: "lstm-reverse2"
  type: "Reverse"
  bottom: "rlstm-output"
  top: "rlstm"
  reverse_param {
    axis: 0
  }
}
layer {
  name: "merge_lstm_rlstm"
  type: "Concat"
  bottom: "lstm"
  bottom: "rlstm"
  top: "merge_lstm_rlstm"
  concat_param {
    axis: 2
  }
}
layer {
  name: "lstm_output_reshape"
  type: "Reshape"
  bottom: "merge_lstm_rlstm"
  top: "lstm_output_reshape"
  reshape_param {
    shape {
      dim: -1
      dim: 1
    }
    axis: 1
    num_axes: 1
  }
}
layer {
  name: "lstm_output"
  type: "Transpose"
  bottom: "lstm_output_reshape"
  top: "lstm_output"
  transpose_param {
    dim: 2
    dim: 3
    dim: 1
    dim: 0
  }
}
layer {
  name: "fc"
  type: "Convolution"
  bottom: "lstm_output"
  top: "fc"
  convolution_param {
    num_output: 512
    kernel_size: 1
    weight_filler {
      type: "gaussian"
      std: 0.01
    }
    bias_filler {
      type: "constant"
      value: 0
    }
  }
}
layer {
  name: "relu_fc"
  type: "ReLU"
  bottom: "fc"
  top: "fc"
}
layer {
  name: "rpn_cls_score"
  type: "Convolution"
  bottom: "fc"
  top: "rpn_cls_score"
  param {
    lr_mult: 1
  }
  param {
    lr_mult: 2
  }
  convolution_param {
    num_output: 18
    pad: 0
    kernel_size: 1
    stride: 1
    weight_filler {
      type: "gaussian"
      std: 0.01
    }
    bias_filler {
      type: "constant"
      value: 0
    }
  }
}
layer {
  name: "rpn_bbox_pred"
  type: "Convolution"
  bottom: "fc"
  top: "rpn_bbox_pred"
  param {
    lr_mult: 1
  }
  param {
    lr_mult: 2
  }
  convolution_param {
    num_output: 36
    pad: 0
    kernel_size: 1
    stride: 1
    weight_filler {
      type: "gaussian"
      std: 0.01
    }
    bias_filler {
      type: "constant"
      value: 0
    }
  }
}
layer {
  name: "rpn_cls_score_reshape"
  type: "Reshape"
  bottom: "rpn_cls_score"
  top: "rpn_cls_score_reshape"
  reshape_param {
    shape {
      dim: 0
      dim: 2
      dim: -1
      dim: 0
    }
  }
}
layer {
  name: "rpn-data"
  type: "Python"
  bottom: "rpn_cls_score"
  bottom: "gt_boxes"
  bottom: "im_info"
  bottom: "data"
  top: "rpn_labels"
  top: "rpn_bbox_targets"
  top: "rpn_bbox_inside_weights"
  top: "rpn_bbox_outside_weights"
  python_param {
    module: "rpn.anchor_target_layer"
    layer: "AnchorTargetLayer"
    param_str: "\'feat_stride\': 16"
  }
}
layer {
  name: "rpn_loss_cls"
  type: "SoftmaxWithLoss"
  bottom: "rpn_cls_score_reshape"
  bottom: "rpn_labels"
  top: "rpn_cls_loss"
  loss_weight: 1
  propagate_down: true
  propagate_down: false
  loss_param {
    ignore_label: -1
    normalize: true
  }
}
layer {
  name: "rpn_loss_bbox"
  type: "SmoothL1Loss"
  bottom: "rpn_bbox_pred"
  bottom: "rpn_bbox_targets"
  bottom: "rpn_bbox_inside_weights"
  bottom: "rpn_bbox_outside_weights"
  top: "rpn_loss_bbox"
  loss_weight: 1
  smooth_l1_loss_param {
    sigma: 3
  }
}
I1015 23:54:15.351390  7483 layer_factory.hpp:77] Creating layer input-data
I1015 23:54:15.373437  7483 net.cpp:100] Creating Layer input-data
I1015 23:54:15.373453  7483 net.cpp:418] input-data -> data
I1015 23:54:15.373476  7483 net.cpp:418] input-data -> im_info
I1015 23:54:15.373481  7483 net.cpp:418] input-data -> gt_boxes
RoiDataLayer: name_to_top: {'gt_boxes': 2, 'data': 0, 'im_info': 1}
I1015 23:54:15.379307  7483 net.cpp:150] Setting up input-data
I1015 23:54:15.379349  7483 net.cpp:157] Top shape: 1 3 600 1000 (1800000)
I1015 23:54:15.379353  7483 net.cpp:157] Top shape: 1 3 (3)
I1015 23:54:15.379355  7483 net.cpp:157] Top shape: 1 4 (4)
I1015 23:54:15.379356  7483 net.cpp:165] Memory required for data: 7200028
I1015 23:54:15.379376  7483 layer_factory.hpp:77] Creating layer data_input-data_0_split
I1015 23:54:15.379401  7483 net.cpp:100] Creating Layer data_input-data_0_split
I1015 23:54:15.379405  7483 net.cpp:444] data_input-data_0_split <- data
I1015 23:54:15.379423  7483 net.cpp:418] data_input-data_0_split -> data_input-data_0_split_0
I1015 23:54:15.379449  7483 net.cpp:418] data_input-data_0_split -> data_input-data_0_split_1
I1015 23:54:15.379472  7483 net.cpp:150] Setting up data_input-data_0_split
I1015 23:54:15.379477  7483 net.cpp:157] Top shape: 1 3 600 1000 (1800000)
I1015 23:54:15.379479  7483 net.cpp:157] Top shape: 1 3 600 1000 (1800000)
I1015 23:54:15.379482  7483 net.cpp:165] Memory required for data: 21600028
I1015 23:54:15.379484  7483 layer_factory.hpp:77] Creating layer conv1_1
I1015 23:54:15.379504  7483 net.cpp:100] Creating Layer conv1_1
I1015 23:54:15.379508  7483 net.cpp:444] conv1_1 <- data_input-data_0_split_0
I1015 23:54:15.379511  7483 net.cpp:418] conv1_1 -> conv1_1
I1015 23:54:15.735394  7483 net.cpp:150] Setting up conv1_1
I1015 23:54:15.735427  7483 net.cpp:157] Top shape: 1 64 600 1000 (38400000)
I1015 23:54:15.735430  7483 net.cpp:165] Memory required for data: 175200028
I1015 23:54:15.735457  7483 layer_factory.hpp:77] Creating layer relu1_1
I1015 23:54:15.735467  7483 net.cpp:100] Creating Layer relu1_1
I1015 23:54:15.735471  7483 net.cpp:444] relu1_1 <- conv1_1
I1015 23:54:15.735489  7483 net.cpp:405] relu1_1 -> conv1_1 (in-place)
I1015 23:54:15.735862  7483 net.cpp:150] Setting up relu1_1
I1015 23:54:15.735869  7483 net.cpp:157] Top shape: 1 64 600 1000 (38400000)
I1015 23:54:15.735886  7483 net.cpp:165] Memory required for data: 328800028
I1015 23:54:15.735888  7483 layer_factory.hpp:77] Creating layer conv1_2
I1015 23:54:15.735913  7483 net.cpp:100] Creating Layer conv1_2
I1015 23:54:15.735915  7483 net.cpp:444] conv1_2 <- conv1_1
I1015 23:54:15.735934  7483 net.cpp:418] conv1_2 -> conv1_2
I1015 23:54:15.738642  7483 net.cpp:150] Setting up conv1_2
I1015 23:54:15.738667  7483 net.cpp:157] Top shape: 1 64 600 1000 (38400000)
I1015 23:54:15.738668  7483 net.cpp:165] Memory required for data: 482400028
I1015 23:54:15.738692  7483 layer_factory.hpp:77] Creating layer relu1_2
I1015 23:54:15.738696  7483 net.cpp:100] Creating Layer relu1_2
I1015 23:54:15.738719  7483 net.cpp:444] relu1_2 <- conv1_2
I1015 23:54:15.738723  7483 net.cpp:405] relu1_2 -> conv1_2 (in-place)
I1015 23:54:15.739140  7483 net.cpp:150] Setting up relu1_2
I1015 23:54:15.739162  7483 net.cpp:157] Top shape: 1 64 600 1000 (38400000)
I1015 23:54:15.739166  7483 net.cpp:165] Memory required for data: 636000028
I1015 23:54:15.739167  7483 layer_factory.hpp:77] Creating layer pool1
I1015 23:54:15.739171  7483 net.cpp:100] Creating Layer pool1
I1015 23:54:15.739189  7483 net.cpp:444] pool1 <- conv1_2
I1015 23:54:15.739193  7483 net.cpp:418] pool1 -> pool1
I1015 23:54:15.739240  7483 net.cpp:150] Setting up pool1
I1015 23:54:15.739245  7483 net.cpp:157] Top shape: 1 64 300 500 (9600000)
I1015 23:54:15.739248  7483 net.cpp:165] Memory required for data: 674400028
I1015 23:54:15.739249  7483 layer_factory.hpp:77] Creating layer conv2_1
I1015 23:54:15.739279  7483 net.cpp:100] Creating Layer conv2_1
I1015 23:54:15.739281  7483 net.cpp:444] conv2_1 <- pool1
I1015 23:54:15.739305  7483 net.cpp:418] conv2_1 -> conv2_1
I1015 23:54:15.741504  7483 net.cpp:150] Setting up conv2_1
I1015 23:54:15.741528  7483 net.cpp:157] Top shape: 1 128 300 500 (19200000)
I1015 23:54:15.741530  7483 net.cpp:165] Memory required for data: 751200028
I1015 23:54:15.741536  7483 layer_factory.hpp:77] Creating layer relu2_1
I1015 23:54:15.741559  7483 net.cpp:100] Creating Layer relu2_1
I1015 23:54:15.741562  7483 net.cpp:444] relu2_1 <- conv2_1
I1015 23:54:15.741578  7483 net.cpp:405] relu2_1 -> conv2_1 (in-place)
I1015 23:54:15.742166  7483 net.cpp:150] Setting up relu2_1
I1015 23:54:15.742174  7483 net.cpp:157] Top shape: 1 128 300 500 (19200000)
I1015 23:54:15.742193  7483 net.cpp:165] Memory required for data: 828000028
I1015 23:54:15.742195  7483 layer_factory.hpp:77] Creating layer conv2_2
I1015 23:54:15.742200  7483 net.cpp:100] Creating Layer conv2_2
I1015 23:54:15.742218  7483 net.cpp:444] conv2_2 <- conv2_1
I1015 23:54:15.742223  7483 net.cpp:418] conv2_2 -> conv2_2
I1015 23:54:15.744015  7483 net.cpp:150] Setting up conv2_2
I1015 23:54:15.744022  7483 net.cpp:157] Top shape: 1 128 300 500 (19200000)
I1015 23:54:15.744040  7483 net.cpp:165] Memory required for data: 904800028
I1015 23:54:15.744045  7483 layer_factory.hpp:77] Creating layer relu2_2
I1015 23:54:15.744050  7483 net.cpp:100] Creating Layer relu2_2
I1015 23:54:15.744066  7483 net.cpp:444] relu2_2 <- conv2_2
I1015 23:54:15.744071  7483 net.cpp:405] relu2_2 -> conv2_2 (in-place)
I1015 23:54:15.744683  7483 net.cpp:150] Setting up relu2_2
I1015 23:54:15.744690  7483 net.cpp:157] Top shape: 1 128 300 500 (19200000)
I1015 23:54:15.744693  7483 net.cpp:165] Memory required for data: 981600028
I1015 23:54:15.744710  7483 layer_factory.hpp:77] Creating layer pool2
I1015 23:54:15.744714  7483 net.cpp:100] Creating Layer pool2
I1015 23:54:15.744717  7483 net.cpp:444] pool2 <- conv2_2
I1015 23:54:15.744737  7483 net.cpp:418] pool2 -> pool2
I1015 23:54:15.744767  7483 net.cpp:150] Setting up pool2
I1015 23:54:15.744789  7483 net.cpp:157] Top shape: 1 128 150 250 (4800000)
I1015 23:54:15.744791  7483 net.cpp:165] Memory required for data: 1000800028
I1015 23:54:15.744793  7483 layer_factory.hpp:77] Creating layer conv3_1
I1015 23:54:15.744814  7483 net.cpp:100] Creating Layer conv3_1
I1015 23:54:15.744817  7483 net.cpp:444] conv3_1 <- pool2
I1015 23:54:15.744820  7483 net.cpp:418] conv3_1 -> conv3_1
I1015 23:54:15.747345  7483 net.cpp:150] Setting up conv3_1
I1015 23:54:15.747370  7483 net.cpp:157] Top shape: 1 256 150 250 (9600000)
I1015 23:54:15.747373  7483 net.cpp:165] Memory required for data: 1039200028
I1015 23:54:15.747381  7483 layer_factory.hpp:77] Creating layer relu3_1
I1015 23:54:15.747404  7483 net.cpp:100] Creating Layer relu3_1
I1015 23:54:15.747409  7483 net.cpp:444] relu3_1 <- conv3_1
I1015 23:54:15.747426  7483 net.cpp:405] relu3_1 -> conv3_1 (in-place)
I1015 23:54:15.747877  7483 net.cpp:150] Setting up relu3_1
I1015 23:54:15.747884  7483 net.cpp:157] Top shape: 1 256 150 250 (9600000)
I1015 23:54:15.747902  7483 net.cpp:165] Memory required for data: 1077600028
I1015 23:54:15.747905  7483 layer_factory.hpp:77] Creating layer conv3_2
I1015 23:54:15.747911  7483 net.cpp:100] Creating Layer conv3_2
I1015 23:54:15.747929  7483 net.cpp:444] conv3_2 <- conv3_1
I1015 23:54:15.747933  7483 net.cpp:418] conv3_2 -> conv3_2
I1015 23:54:15.750659  7483 net.cpp:150] Setting up conv3_2
I1015 23:54:15.750684  7483 net.cpp:157] Top shape: 1 256 150 250 (9600000)
I1015 23:54:15.750686  7483 net.cpp:165] Memory required for data: 1116000028
I1015 23:54:15.750691  7483 layer_factory.hpp:77] Creating layer relu3_2
I1015 23:54:15.750696  7483 net.cpp:100] Creating Layer relu3_2
I1015 23:54:15.750715  7483 net.cpp:444] relu3_2 <- conv3_2
I1015 23:54:15.750720  7483 net.cpp:405] relu3_2 -> conv3_2 (in-place)
I1015 23:54:15.751195  7483 net.cpp:150] Setting up relu3_2
I1015 23:54:15.751202  7483 net.cpp:157] Top shape: 1 256 150 250 (9600000)
I1015 23:54:15.751204  7483 net.cpp:165] Memory required for data: 1154400028
I1015 23:54:15.751222  7483 layer_factory.hpp:77] Creating layer conv3_3
I1015 23:54:15.751230  7483 net.cpp:100] Creating Layer conv3_3
I1015 23:54:15.751250  7483 net.cpp:444] conv3_3 <- conv3_2
I1015 23:54:15.751253  7483 net.cpp:418] conv3_3 -> conv3_3
I1015 23:54:15.753835  7483 net.cpp:150] Setting up conv3_3
I1015 23:54:15.753859  7483 net.cpp:157] Top shape: 1 256 150 250 (9600000)
I1015 23:54:15.753862  7483 net.cpp:165] Memory required for data: 1192800028
I1015 23:54:15.753867  7483 layer_factory.hpp:77] Creating layer relu3_3
I1015 23:54:15.753872  7483 net.cpp:100] Creating Layer relu3_3
I1015 23:54:15.753891  7483 net.cpp:444] relu3_3 <- conv3_3
I1015 23:54:15.753895  7483 net.cpp:405] relu3_3 -> conv3_3 (in-place)
I1015 23:54:15.754568  7483 net.cpp:150] Setting up relu3_3
I1015 23:54:15.754576  7483 net.cpp:157] Top shape: 1 256 150 250 (9600000)
I1015 23:54:15.754595  7483 net.cpp:165] Memory required for data: 1231200028
I1015 23:54:15.754596  7483 layer_factory.hpp:77] Creating layer pool3
I1015 23:54:15.754602  7483 net.cpp:100] Creating Layer pool3
I1015 23:54:15.754621  7483 net.cpp:444] pool3 <- conv3_3
I1015 23:54:15.754626  7483 net.cpp:418] pool3 -> pool3
I1015 23:54:15.754657  7483 net.cpp:150] Setting up pool3
I1015 23:54:15.754662  7483 net.cpp:157] Top shape: 1 256 75 125 (2400000)
I1015 23:54:15.754663  7483 net.cpp:165] Memory required for data: 1240800028
I1015 23:54:15.754665  7483 layer_factory.hpp:77] Creating layer conv4_1
I1015 23:54:15.754671  7483 net.cpp:100] Creating Layer conv4_1
I1015 23:54:15.754673  7483 net.cpp:444] conv4_1 <- pool3
I1015 23:54:15.754678  7483 net.cpp:418] conv4_1 -> conv4_1
I1015 23:54:15.758796  7483 net.cpp:150] Setting up conv4_1
I1015 23:54:15.758826  7483 net.cpp:157] Top shape: 1 512 75 125 (4800000)
I1015 23:54:15.758829  7483 net.cpp:165] Memory required for data: 1260000028
I1015 23:54:15.758836  7483 layer_factory.hpp:77] Creating layer relu4_1
I1015 23:54:15.758858  7483 net.cpp:100] Creating Layer relu4_1
I1015 23:54:15.758862  7483 net.cpp:444] relu4_1 <- conv4_1
I1015 23:54:15.758865  7483 net.cpp:405] relu4_1 -> conv4_1 (in-place)
I1015 23:54:15.759308  7483 net.cpp:150] Setting up relu4_1
I1015 23:54:15.759315  7483 net.cpp:157] Top shape: 1 512 75 125 (4800000)
I1015 23:54:15.759332  7483 net.cpp:165] Memory required for data: 1279200028
I1015 23:54:15.759335  7483 layer_factory.hpp:77] Creating layer conv4_2
I1015 23:54:15.759356  7483 net.cpp:100] Creating Layer conv4_2
I1015 23:54:15.759358  7483 net.cpp:444] conv4_2 <- conv4_1
I1015 23:54:15.759363  7483 net.cpp:418] conv4_2 -> conv4_2
I1015 23:54:15.764329  7483 net.cpp:150] Setting up conv4_2
I1015 23:54:15.764360  7483 net.cpp:157] Top shape: 1 512 75 125 (4800000)
I1015 23:54:15.764364  7483 net.cpp:165] Memory required for data: 1298400028
I1015 23:54:15.764374  7483 layer_factory.hpp:77] Creating layer relu4_2
I1015 23:54:15.764396  7483 net.cpp:100] Creating Layer relu4_2
I1015 23:54:15.764400  7483 net.cpp:444] relu4_2 <- conv4_2
I1015 23:54:15.764420  7483 net.cpp:405] relu4_2 -> conv4_2 (in-place)
I1015 23:54:15.764825  7483 net.cpp:150] Setting up relu4_2
I1015 23:54:15.764832  7483 net.cpp:157] Top shape: 1 512 75 125 (4800000)
I1015 23:54:15.764849  7483 net.cpp:165] Memory required for data: 1317600028
I1015 23:54:15.764853  7483 layer_factory.hpp:77] Creating layer conv4_3
I1015 23:54:15.764873  7483 net.cpp:100] Creating Layer conv4_3
I1015 23:54:15.764876  7483 net.cpp:444] conv4_3 <- conv4_2
I1015 23:54:15.764880  7483 net.cpp:418] conv4_3 -> conv4_3
I1015 23:54:15.769315  7483 net.cpp:150] Setting up conv4_3
I1015 23:54:15.769346  7483 net.cpp:157] Top shape: 1 512 75 125 (4800000)
I1015 23:54:15.769349  7483 net.cpp:165] Memory required for data: 1336800028
I1015 23:54:15.769357  7483 layer_factory.hpp:77] Creating layer relu4_3
I1015 23:54:15.769379  7483 net.cpp:100] Creating Layer relu4_3
I1015 23:54:15.769383  7483 net.cpp:444] relu4_3 <- conv4_3
I1015 23:54:15.769404  7483 net.cpp:405] relu4_3 -> conv4_3 (in-place)
I1015 23:54:15.770026  7483 net.cpp:150] Setting up relu4_3
I1015 23:54:15.770035  7483 net.cpp:157] Top shape: 1 512 75 125 (4800000)
I1015 23:54:15.770052  7483 net.cpp:165] Memory required for data: 1356000028
I1015 23:54:15.770054  7483 layer_factory.hpp:77] Creating layer pool4
I1015 23:54:15.770061  7483 net.cpp:100] Creating Layer pool4
I1015 23:54:15.770063  7483 net.cpp:444] pool4 <- conv4_3
I1015 23:54:15.770067  7483 net.cpp:418] pool4 -> pool4
I1015 23:54:15.770130  7483 net.cpp:150] Setting up pool4
I1015 23:54:15.770134  7483 net.cpp:157] Top shape: 1 512 38 63 (1225728)
I1015 23:54:15.770153  7483 net.cpp:165] Memory required for data: 1360902940
I1015 23:54:15.770154  7483 layer_factory.hpp:77] Creating layer conv5_1
I1015 23:54:15.770160  7483 net.cpp:100] Creating Layer conv5_1
I1015 23:54:15.770164  7483 net.cpp:444] conv5_1 <- pool4
I1015 23:54:15.770169  7483 net.cpp:418] conv5_1 -> conv5_1
I1015 23:54:15.774264  7483 net.cpp:150] Setting up conv5_1
I1015 23:54:15.774296  7483 net.cpp:157] Top shape: 1 512 38 63 (1225728)
I1015 23:54:15.774298  7483 net.cpp:165] Memory required for data: 1365805852
I1015 23:54:15.774307  7483 layer_factory.hpp:77] Creating layer relu5_1
I1015 23:54:15.774315  7483 net.cpp:100] Creating Layer relu5_1
I1015 23:54:15.774333  7483 net.cpp:444] relu5_1 <- conv5_1
I1015 23:54:15.774338  7483 net.cpp:405] relu5_1 -> conv5_1 (in-place)
I1015 23:54:15.774770  7483 net.cpp:150] Setting up relu5_1
I1015 23:54:15.774792  7483 net.cpp:157] Top shape: 1 512 38 63 (1225728)
I1015 23:54:15.774796  7483 net.cpp:165] Memory required for data: 1370708764
I1015 23:54:15.774797  7483 layer_factory.hpp:77] Creating layer conv5_2
I1015 23:54:15.774803  7483 net.cpp:100] Creating Layer conv5_2
I1015 23:54:15.774821  7483 net.cpp:444] conv5_2 <- conv5_1
I1015 23:54:15.774825  7483 net.cpp:418] conv5_2 -> conv5_2
I1015 23:54:15.779126  7483 net.cpp:150] Setting up conv5_2
I1015 23:54:15.779157  7483 net.cpp:157] Top shape: 1 512 38 63 (1225728)
I1015 23:54:15.779160  7483 net.cpp:165] Memory required for data: 1375611676
I1015 23:54:15.779167  7483 layer_factory.hpp:77] Creating layer relu5_2
I1015 23:54:15.779189  7483 net.cpp:100] Creating Layer relu5_2
I1015 23:54:15.779193  7483 net.cpp:444] relu5_2 <- conv5_2
I1015 23:54:15.779197  7483 net.cpp:405] relu5_2 -> conv5_2 (in-place)
I1015 23:54:15.779592  7483 net.cpp:150] Setting up relu5_2
I1015 23:54:15.779599  7483 net.cpp:157] Top shape: 1 512 38 63 (1225728)
I1015 23:54:15.779603  7483 net.cpp:165] Memory required for data: 1380514588
I1015 23:54:15.779619  7483 layer_factory.hpp:77] Creating layer conv5_3
I1015 23:54:15.779625  7483 net.cpp:100] Creating Layer conv5_3
I1015 23:54:15.779628  7483 net.cpp:444] conv5_3 <- conv5_2
I1015 23:54:15.779646  7483 net.cpp:418] conv5_3 -> conv5_3
I1015 23:54:15.783793  7483 net.cpp:150] Setting up conv5_3
I1015 23:54:15.783808  7483 net.cpp:157] Top shape: 1 512 38 63 (1225728)
I1015 23:54:15.783812  7483 net.cpp:165] Memory required for data: 1385417500
I1015 23:54:15.783819  7483 layer_factory.hpp:77] Creating layer relu5_3
I1015 23:54:15.783826  7483 net.cpp:100] Creating Layer relu5_3
I1015 23:54:15.783829  7483 net.cpp:444] relu5_3 <- conv5_3
I1015 23:54:15.783833  7483 net.cpp:405] relu5_3 -> conv5_3 (in-place)
I1015 23:54:15.784458  7483 net.cpp:150] Setting up relu5_3
I1015 23:54:15.784467  7483 net.cpp:157] Top shape: 1 512 38 63 (1225728)
I1015 23:54:15.784471  7483 net.cpp:165] Memory required for data: 1390320412
I1015 23:54:15.784472  7483 layer_factory.hpp:77] Creating layer im2col
I1015 23:54:15.784482  7483 net.cpp:100] Creating Layer im2col
I1015 23:54:15.784485  7483 net.cpp:444] im2col <- conv5_3
I1015 23:54:15.784489  7483 net.cpp:418] im2col -> im2col
I1015 23:54:15.784581  7483 net.cpp:150] Setting up im2col
I1015 23:54:15.784587  7483 net.cpp:157] Top shape: 1 4608 38 63 (11031552)
I1015 23:54:15.784590  7483 net.cpp:165] Memory required for data: 1434446620
I1015 23:54:15.784591  7483 layer_factory.hpp:77] Creating layer im2col_transpose
I1015 23:54:15.784596  7483 net.cpp:100] Creating Layer im2col_transpose
I1015 23:54:15.784600  7483 net.cpp:444] im2col_transpose <- im2col
I1015 23:54:15.784603  7483 net.cpp:418] im2col_transpose -> im2col_transpose
I1015 23:54:15.784692  7483 net.cpp:150] Setting up im2col_transpose
I1015 23:54:15.784696  7483 net.cpp:157] Top shape: 63 38 1 4608 (11031552)
I1015 23:54:15.784699  7483 net.cpp:165] Memory required for data: 1478572828
I1015 23:54:15.784701  7483 layer_factory.hpp:77] Creating layer lstm_input
I1015 23:54:15.784706  7483 net.cpp:100] Creating Layer lstm_input
I1015 23:54:15.784708  7483 net.cpp:444] lstm_input <- im2col_transpose
I1015 23:54:15.784711  7483 net.cpp:418] lstm_input -> lstm_input
I1015 23:54:15.784729  7483 net.cpp:150] Setting up lstm_input
I1015 23:54:15.784734  7483 net.cpp:157] Top shape: 63 38 4608 (11031552)
I1015 23:54:15.784735  7483 net.cpp:165] Memory required for data: 1522699036
I1015 23:54:15.784739  7483 layer_factory.hpp:77] Creating layer lstm_input_lstm_input_0_split
I1015 23:54:15.784744  7483 net.cpp:100] Creating Layer lstm_input_lstm_input_0_split
I1015 23:54:15.784747  7483 net.cpp:444] lstm_input_lstm_input_0_split <- lstm_input
I1015 23:54:15.784751  7483 net.cpp:418] lstm_input_lstm_input_0_split -> lstm_input_lstm_input_0_split_0
I1015 23:54:15.784755  7483 net.cpp:418] lstm_input_lstm_input_0_split -> lstm_input_lstm_input_0_split_1
I1015 23:54:15.784781  7483 net.cpp:150] Setting up lstm_input_lstm_input_0_split
I1015 23:54:15.784785  7483 net.cpp:157] Top shape: 63 38 4608 (11031552)
I1015 23:54:15.784788  7483 net.cpp:157] Top shape: 63 38 4608 (11031552)
I1015 23:54:15.784790  7483 net.cpp:165] Memory required for data: 1610951452
I1015 23:54:15.784792  7483 layer_factory.hpp:77] Creating layer lstm
I1015 23:54:15.784798  7483 net.cpp:100] Creating Layer lstm
I1015 23:54:15.784801  7483 net.cpp:444] lstm <- lstm_input_lstm_input_0_split_0
I1015 23:54:15.784804  7483 net.cpp:418] lstm -> lstm
I1015 23:54:15.800655  7483 net.cpp:150] Setting up lstm
I1015 23:54:15.800675  7483 net.cpp:157] Top shape: 63 38 128 (306432)
I1015 23:54:15.800678  7483 net.cpp:165] Memory required for data: 1612177180
I1015 23:54:15.800686  7483 layer_factory.hpp:77] Creating layer lstm-reverse1
I1015 23:54:15.800693  7483 net.cpp:100] Creating Layer lstm-reverse1
I1015 23:54:15.800696  7483 net.cpp:444] lstm-reverse1 <- lstm_input_lstm_input_0_split_1
I1015 23:54:15.800703  7483 net.cpp:418] lstm-reverse1 -> rlstm_input
I1015 23:54:15.800745  7483 net.cpp:150] Setting up lstm-reverse1
I1015 23:54:15.800750  7483 net.cpp:157] Top shape: 63 38 4608 (11031552)
I1015 23:54:15.800751  7483 net.cpp:165] Memory required for data: 1656303388
I1015 23:54:15.800753  7483 layer_factory.hpp:77] Creating layer rlstm
I1015 23:54:15.800760  7483 net.cpp:100] Creating Layer rlstm
I1015 23:54:15.800761  7483 net.cpp:444] rlstm <- rlstm_input
I1015 23:54:15.800765  7483 net.cpp:418] rlstm -> rlstm-output
I1015 23:54:15.816635  7483 net.cpp:150] Setting up rlstm
I1015 23:54:15.816653  7483 net.cpp:157] Top shape: 63 38 128 (306432)
I1015 23:54:15.816655  7483 net.cpp:165] Memory required for data: 1657529116
I1015 23:54:15.816663  7483 layer_factory.hpp:77] Creating layer lstm-reverse2
I1015 23:54:15.816670  7483 net.cpp:100] Creating Layer lstm-reverse2
I1015 23:54:15.816674  7483 net.cpp:444] lstm-reverse2 <- rlstm-output
I1015 23:54:15.816679  7483 net.cpp:418] lstm-reverse2 -> rlstm
I1015 23:54:15.816720  7483 net.cpp:150] Setting up lstm-reverse2
I1015 23:54:15.816725  7483 net.cpp:157] Top shape: 63 38 128 (306432)
I1015 23:54:15.816726  7483 net.cpp:165] Memory required for data: 1658754844
I1015 23:54:15.816728  7483 layer_factory.hpp:77] Creating layer merge_lstm_rlstm
I1015 23:54:15.816735  7483 net.cpp:100] Creating Layer merge_lstm_rlstm
I1015 23:54:15.816736  7483 net.cpp:444] merge_lstm_rlstm <- lstm
I1015 23:54:15.816740  7483 net.cpp:444] merge_lstm_rlstm <- rlstm
I1015 23:54:15.816743  7483 net.cpp:418] merge_lstm_rlstm -> merge_lstm_rlstm
I1015 23:54:15.816761  7483 net.cpp:150] Setting up merge_lstm_rlstm
I1015 23:54:15.816763  7483 net.cpp:157] Top shape: 63 38 256 (612864)
I1015 23:54:15.816766  7483 net.cpp:165] Memory required for data: 1661206300
I1015 23:54:15.816768  7483 layer_factory.hpp:77] Creating layer lstm_output_reshape
I1015 23:54:15.816774  7483 net.cpp:100] Creating Layer lstm_output_reshape
I1015 23:54:15.816777  7483 net.cpp:444] lstm_output_reshape <- merge_lstm_rlstm
I1015 23:54:15.816781  7483 net.cpp:418] lstm_output_reshape -> lstm_output_reshape
I1015 23:54:15.816802  7483 net.cpp:150] Setting up lstm_output_reshape
I1015 23:54:15.816807  7483 net.cpp:157] Top shape: 63 38 1 256 (612864)
I1015 23:54:15.816808  7483 net.cpp:165] Memory required for data: 1663657756
I1015 23:54:15.816812  7483 layer_factory.hpp:77] Creating layer lstm_output
I1015 23:54:15.816815  7483 net.cpp:100] Creating Layer lstm_output
I1015 23:54:15.816818  7483 net.cpp:444] lstm_output <- lstm_output_reshape
I1015 23:54:15.816823  7483 net.cpp:418] lstm_output -> lstm_output
I1015 23:54:15.816912  7483 net.cpp:150] Setting up lstm_output
I1015 23:54:15.816917  7483 net.cpp:157] Top shape: 1 256 38 63 (612864)
I1015 23:54:15.816920  7483 net.cpp:165] Memory required for data: 1666109212
I1015 23:54:15.816921  7483 layer_factory.hpp:77] Creating layer fc
I1015 23:54:15.816929  7483 net.cpp:100] Creating Layer fc
I1015 23:54:15.816932  7483 net.cpp:444] fc <- lstm_output
I1015 23:54:15.816936  7483 net.cpp:418] fc -> fc
I1015 23:54:15.819427  7483 net.cpp:150] Setting up fc
I1015 23:54:15.819437  7483 net.cpp:157] Top shape: 1 512 38 63 (1225728)
I1015 23:54:15.819438  7483 net.cpp:165] Memory required for data: 1671012124
I1015 23:54:15.819447  7483 layer_factory.hpp:77] Creating layer relu_fc
I1015 23:54:15.819453  7483 net.cpp:100] Creating Layer relu_fc
I1015 23:54:15.819455  7483 net.cpp:444] relu_fc <- fc
I1015 23:54:15.819459  7483 net.cpp:405] relu_fc -> fc (in-place)
I1015 23:54:15.820086  7483 net.cpp:150] Setting up relu_fc
I1015 23:54:15.820094  7483 net.cpp:157] Top shape: 1 512 38 63 (1225728)
I1015 23:54:15.820097  7483 net.cpp:165] Memory required for data: 1675915036
I1015 23:54:15.820101  7483 layer_factory.hpp:77] Creating layer fc_relu_fc_0_split
I1015 23:54:15.820104  7483 net.cpp:100] Creating Layer fc_relu_fc_0_split
I1015 23:54:15.820107  7483 net.cpp:444] fc_relu_fc_0_split <- fc
I1015 23:54:15.820112  7483 net.cpp:418] fc_relu_fc_0_split -> fc_relu_fc_0_split_0
I1015 23:54:15.820117  7483 net.cpp:418] fc_relu_fc_0_split -> fc_relu_fc_0_split_1
I1015 23:54:15.820148  7483 net.cpp:150] Setting up fc_relu_fc_0_split
I1015 23:54:15.820152  7483 net.cpp:157] Top shape: 1 512 38 63 (1225728)
I1015 23:54:15.820155  7483 net.cpp:157] Top shape: 1 512 38 63 (1225728)
I1015 23:54:15.820158  7483 net.cpp:165] Memory required for data: 1685720860
I1015 23:54:15.820160  7483 layer_factory.hpp:77] Creating layer rpn_cls_score
I1015 23:54:15.820168  7483 net.cpp:100] Creating Layer rpn_cls_score
I1015 23:54:15.820169  7483 net.cpp:444] rpn_cls_score <- fc_relu_fc_0_split_0
I1015 23:54:15.820174  7483 net.cpp:418] rpn_cls_score -> rpn_cls_score
I1015 23:54:15.822024  7483 net.cpp:150] Setting up rpn_cls_score
I1015 23:54:15.822032  7483 net.cpp:157] Top shape: 1 18 38 63 (43092)
I1015 23:54:15.822036  7483 net.cpp:165] Memory required for data: 1685893228
I1015 23:54:15.822041  7483 layer_factory.hpp:77] Creating layer rpn_cls_score_rpn_cls_score_0_split
I1015 23:54:15.822046  7483 net.cpp:100] Creating Layer rpn_cls_score_rpn_cls_score_0_split
I1015 23:54:15.822049  7483 net.cpp:444] rpn_cls_score_rpn_cls_score_0_split <- rpn_cls_score
I1015 23:54:15.822054  7483 net.cpp:418] rpn_cls_score_rpn_cls_score_0_split -> rpn_cls_score_rpn_cls_score_0_split_0
I1015 23:54:15.822059  7483 net.cpp:418] rpn_cls_score_rpn_cls_score_0_split -> rpn_cls_score_rpn_cls_score_0_split_1
I1015 23:54:15.822087  7483 net.cpp:150] Setting up rpn_cls_score_rpn_cls_score_0_split
I1015 23:54:15.822091  7483 net.cpp:157] Top shape: 1 18 38 63 (43092)
I1015 23:54:15.822095  7483 net.cpp:157] Top shape: 1 18 38 63 (43092)
I1015 23:54:15.822098  7483 net.cpp:165] Memory required for data: 1686237964
I1015 23:54:15.822099  7483 layer_factory.hpp:77] Creating layer rpn_bbox_pred
I1015 23:54:15.822106  7483 net.cpp:100] Creating Layer rpn_bbox_pred
I1015 23:54:15.822108  7483 net.cpp:444] rpn_bbox_pred <- fc_relu_fc_0_split_1
I1015 23:54:15.822113  7483 net.cpp:418] rpn_bbox_pred -> rpn_bbox_pred
I1015 23:54:15.823782  7483 net.cpp:150] Setting up rpn_bbox_pred
I1015 23:54:15.823791  7483 net.cpp:157] Top shape: 1 36 38 63 (86184)
I1015 23:54:15.823793  7483 net.cpp:165] Memory required for data: 1686582700
I1015 23:54:15.823797  7483 layer_factory.hpp:77] Creating layer rpn_cls_score_reshape
I1015 23:54:15.823802  7483 net.cpp:100] Creating Layer rpn_cls_score_reshape
I1015 23:54:15.823806  7483 net.cpp:444] rpn_cls_score_reshape <- rpn_cls_score_rpn_cls_score_0_split_0
I1015 23:54:15.823810  7483 net.cpp:418] rpn_cls_score_reshape -> rpn_cls_score_reshape
I1015 23:54:15.823832  7483 net.cpp:150] Setting up rpn_cls_score_reshape
I1015 23:54:15.823837  7483 net.cpp:157] Top shape: 1 2 342 63 (43092)
I1015 23:54:15.823838  7483 net.cpp:165] Memory required for data: 1686755068
I1015 23:54:15.823840  7483 layer_factory.hpp:77] Creating layer rpn-data
I1015 23:54:15.824203  7483 net.cpp:100] Creating Layer rpn-data
I1015 23:54:15.824210  7483 net.cpp:444] rpn-data <- rpn_cls_score_rpn_cls_score_0_split_1
I1015 23:54:15.824213  7483 net.cpp:444] rpn-data <- gt_boxes
I1015 23:54:15.824218  7483 net.cpp:444] rpn-data <- im_info
I1015 23:54:15.824219  7483 net.cpp:444] rpn-data <- data_input-data_0_split_1
I1015 23:54:15.824224  7483 net.cpp:418] rpn-data -> rpn_labels
I1015 23:54:15.824229  7483 net.cpp:418] rpn-data -> rpn_bbox_targets
I1015 23:54:15.824235  7483 net.cpp:418] rpn-data -> rpn_bbox_inside_weights
I1015 23:54:15.824240  7483 net.cpp:418] rpn-data -> rpn_bbox_outside_weights
anchors [[   0.    2.   15.   12.]
 [   0.    0.   15.   15.]
 [   0.  -14.   15.   29.]
 [   0.  -24.   15.   39.]
 [   0.  -38.   15.   53.]
 [   0.  -58.   15.   73.]
 [   0.  -87.   15.  102.]
 [   0. -128.   15.  143.]
 [   0. -186.   15.  201.]]
I1015 23:54:15.825188  7483 net.cpp:150] Setting up rpn-data
I1015 23:54:15.825196  7483 net.cpp:157] Top shape: 1 1 342 63 (21546)
I1015 23:54:15.825199  7483 net.cpp:157] Top shape: 1 36 38 63 (86184)
I1015 23:54:15.825202  7483 net.cpp:157] Top shape: 1 36 38 63 (86184)
I1015 23:54:15.825206  7483 net.cpp:157] Top shape: 1 36 38 63 (86184)
I1015 23:54:15.825207  7483 net.cpp:165] Memory required for data: 1687875460
I1015 23:54:15.825209  7483 layer_factory.hpp:77] Creating layer rpn_loss_cls
I1015 23:54:15.825214  7483 net.cpp:100] Creating Layer rpn_loss_cls
I1015 23:54:15.825217  7483 net.cpp:444] rpn_loss_cls <- rpn_cls_score_reshape
I1015 23:54:15.825220  7483 net.cpp:444] rpn_loss_cls <- rpn_labels
I1015 23:54:15.825224  7483 net.cpp:418] rpn_loss_cls -> rpn_cls_loss
…
